models/fruits.tflite (tflite, 66240 bytes, 14 tensors)

arith.constant f4 [32]
000000 df 06 7d 3c e8 7b 11 3d c8 c4 43 bc 20 0d bc bb
       0.015443533 0.035518557 -0.011948772 -0.0057388693
000010 ee 10 ea 3b fb 3f 87 3c 9e 16 65 3c b0 43 b9 3c
       0.0071431315 0.01651 0.013982443 0.022615284
000020 9d f7 0e 3d f5 28 ca bc 44 08 9b 3b 54 84 3d bc
       0.03490411 -0.024677733 0.00473121 -0.011567194
000030 ff b6 5e 3c a6 db ff bc 29 20 fb 3c f1 31 c6 b9
       0.013593434 -0.031232666 0.030654984 -0.00037802712
000040 9d cf 92 bb 0f b8 67 3c c0 6e 83 3a a3 86 b3 bc
       -0.004480316 0.014143004 0.0010027513 -0.021914786
000050 40 55 ec 3c 2f a2 10 3c 86 49 03 bd f1 03 df bc
       0.028849244 0.00882773 -0.03205254 -0.02722356
000060 97 4c 15 bc 86 dc 12 3c 02 18 82 bc a7 c9 e2 3c
       -0.009112499 0.00896371 -0.015880588 0.027684046
000070 90 dc e7 3a 22 e2 ae bc 69 77 43 bc 9d 1f e4 3c
       0.0017689634 -0.021348063 -0.011930325 0.027847106

arith.constant1 f4 [32, 3, 3, 3]
000000 da 0a d1 3d d8 0f d6 3b a4 5d 1e 3e bd 4a 50 3d
       0.10207148 0.0065326504 0.15465409 0.050852526
000010 b6 bd 4c 3d ac c4 ae 3c 71 22 0b be bc c9 a3 bd
       0.04998561 0.021334015 -0.13587357 -0.07997462
000020 bf 10 85 bd 1d 56 06 be aa 86 95 bd a0 17 06 3e
       -0.06497335 -0.13118787 -0.07301076 0.1309495
000030 ee c1 cd bd 1f ad 80 3c 51 3f c9 bd 8d 30 78 bd
       -0.10046755 0.01570755 -0.0982653 -0.060593177
000040 66 00 ab 3d 3c aa ed bd 68 1e 55 bd c6 ca f2 bd
       0.08349685 -0.11604735 -0.05203095 -0.11855082
000050 30 4e 13 3d 86 2f a4 3c 14 07 8e 3d 27 3e ce 3d
       0.035963237 0.020042192 0.06934944 0.10070448
000060 64 c3 97 bd c7 30 e4 3d fc 2d bd 3d 56 c7 89 bd
       -0.07410315 0.11142116 0.092372864 -0.067274734
000070 04 24 d4 3b e3 e0 76 bd 06 d8 80 3d c8 f4 99 bd
       0.00647402 -0.060273062 0.06291203 -0.075173914
000080 cc 6a 3e 3c cc c7 a1 bc a5 2b b8 3c 02 ad 8e bc
       0.011622142 -0.01974859 0.022481749 -0.01741648
000090 d9 16 eb bd fa 10 cc bd 6b 4e 12 be 23 00 8f bc
       -0.11478967 -0.099641755 -0.14287727 -0.01745612
0000a0 9c a6 d6 3d 18 23 fc bd 62 01 16 3d aa a8 88 bd
       0.10480997 -0.12311381 0.036622413 -0.06672795
0000b0 01 44 2f bc 0f 16 34 3c e4 93 05 3e 29 1c 2d 3e
       -0.010697366 0.010991587 0.13044697 0.16905273
0000c0 2e 43 01 3d 6a e6 ee 3c c1 25 ae bd 16 56 5c bd
       0.03155821 0.029162604 -0.08503295 -0.053793035
0000d0 5b d8 f4 bd fa 38 e6 bd 51 84 a4 bd ca 0f fa bd
       -0.11955329 -0.11241336 -0.0803305 -0.12210043
0000e0 e5 72 70 3d cd a7 6d 3c aa 02 c7 bd 0e 03 c5 bd
       0.058703322 0.014505339 -0.09717305 -0.09619723
0000f0 6c 13 a0 3d ca b1 86 bc a6 6c f0 3c d8 b6 3d 3c
       0.078162044 -0.016442198 0.029348683 0.011579238
000100 4c 46 4b bc 25 33 21 bd 8a c5 f6 bc e1 67 f1 bd
       -0.012406897 -0.039355416 -0.03012349 -0.117873915
000110 3b 6a 81 3d f0 45 ce 3c 8d d4 47 bd 5a 41 af bb
       0.0631909 0.025179833 -0.04878669 -0.0053483667
000120 34 f6 0f bd 3b 16 ca bd 2a 2b 84 3d 9f f4 94 39
       -0.035146907 -0.098675214 0.064535454 0.00028411017
000130 c4 59 ac bd f2 9e 52 3d 73 1d ca bd 5d ae b2 bd
       -0.08415559 0.051421113 -0.09868898 -0.087246634
000140 ba e2 f2 3d c4 64 da bd 2c 1c b4 3d d7 e3 dc 3c
       0.11859651 -0.10663751 0.08794436 0.026964111
000150 3b 4d f1 bd 7b c5 a8 bd 09 7c 7f 3d 0a a0 4c bc
       -0.11782309 -0.082407914 0.06237415 -0.012489328
000160 6d a9 0d 3e 6b ed 37 3d d7 72 5a 3d c9 1c 77 bc
       0.13834162 0.044904154 0.053332176 -0.0150825465
000170 86 d5 0b 3e c8 c7 dc bd f4 40 c2 bc 0b 39 60 3c
       0.13655671 -0.10780293 -0.023712613 0.013685475
000180 3a e0 e8 3d ac 8b 06 3e 90 82 82 3d 06 a0 df bc
       0.11370893 0.13139218 0.06372559 -0.027297985
000190 50 c2 31 bd 83 f7 3b bd 02 a8 03 be 42 b0 1b 3d
       -0.0433982 -0.045890342 -0.12857059 0.03800989
0001a0 09 f7 e5 bd 27 4c 04 3e 86 1c 44 3d f5 69 22 3d
       -0.11228759 0.12919675 0.047878765 0.03965183
0001b0 ca e8 bc 3c c1 aa 2a 3d 30 5f 97 3d 27 7b b8 bd
       0.023060221 0.04166675 0.073912024 -0.090078644
0001c0 b6 4e 0b 3e df 9d 20 bd 3c de 8e bd 39 10 91 bc
       0.13604245 -0.039213058 -0.069759816 -0.01770793
0001d0 f7 92 55 bd 8c 67 9e 3c f6 c7 8d 3d 8a 0c 18 3d
       -0.05214211 0.019336484 0.06922905 0.037121333
0001e0 3e 4d 03 be ac 9b 32 3d 36 6b af 3d 9f 41 6c 3d
       -0.12822434 0.04360549 0.08565371 0.05767977
0001f0 a0 2c 41 bd 40 77 88 3d b3 d9 e4 bd a1 cd 19 bd
       -0.0471617 0.0666337 -0.11174335 -0.03754962
000200 04 51 8e 3c b8 59 55 3d 03 d5 ba bc a5 f8 21 be
       0.017372616 0.052087516 -0.02280665 -0.15817507
000210 fb 04 36 3d 09 44 69 bd 30 12 25 3d f5 e2 b9 bd
       0.044438343 -0.05694965 0.040300548 -0.09076492
000220 e9 0c 69 bd 2d cc 1c 3e bf 8e de b9 53 71 d1 3c
       -0.056897078 0.15312262 -0.00042449494 0.025566733
000230 87 ec 01 be c7 33 aa bd d7 d2 a4 bd d1 05 9d bd
       -0.12687884 -0.08310657 -0.08048027 -0.07667125
000240 81 d2 0d bc 44 81 c0 bd 2f a2 6e bd 4b dc d0 3d
       -0.008656145 -0.093996555 -0.05826014 0.101982675
000250 81 68 9d 3d b0 f2 a6 3b bd dc a2 bc 13 5d 4f 3d
       0.07685948 0.0050948486 -0.019880647 0.050625872
000260 69 8b f8 3d b9 f6 9e 3d 0a 5d d5 bd ae f1 86 3c
       0.121359654 0.07761902 -0.104181364 0.016472664
000270 0e e6 dc bd 43 46 2d 3d d8 57 9e bd 9b 3b 07 be
       -0.10786067 0.042303335 -0.077315986 -0.13206331
000280 ab 68 d1 3d bd 54 0a bd 59 75 9d bd 7b f6 27 3d
       0.10225042 -0.03377222 -0.07688398 0.041006546
000290 9d 8b f2 3c fc 17 c7 bd 04 61 19 3e c6 e6 f2 bc
       0.029607588 -0.097213715 0.14978415 -0.029651057
0002a0 1e d1 06 be c3 c2 10 3e 6e 7d e7 3d 03 23 e9 bd
       -0.1316571 0.14136796 0.11303221 -0.11383631
0002b0 72 bd e0 3d bb a0 fe bd 14 a6 c8 bc 89 e3 ea bc
       0.10973634 -0.12433001 -0.024493255 -0.02867295
0002c0 2d 86 13 bb 62 df e1 39 6f 6d 20 bd a9 c3 8a bd
       -0.0022510395 0.00043081777 -0.039166864 -0.067756005
0002d0 40 bb ad bd c4 9f 1e 3e 08 15 ad 3d 39 d0 2a bd
       -0.08482981 0.15490633 0.08451277 -0.041702483
0002e0 5c 55 b9 bc 29 cb dd bd 4b 06 99 3d 90 67 ed 3d
       -0.02262371 -0.10829765 0.074719034 0.115920186
0002f0 5a 22 49 3c 7a f3 4a 3d 0c 6d e6 bd a1 39 6a bd
       0.012276256 0.049548604 -0.11251268 -0.057183865
000300 0c 04 d1 3d c7 9f c1 bc 90 fb 9a 3d 41 25 cb bd
       0.1020585 -0.023635758 0.07567513 -0.09919215
000310 8e 74 b0 3d 74 2f 0c be cc c4 ad 3d 59 e7 f5 bd
       0.08615981 -0.13689977 0.08484802 -0.12007017
000320 49 78 9c bc db 92 74 3d 98 c2 0b 3e 9e 8c ae bc
       -0.019100325 0.059710365 0.1364845 -0.021307286
000330 73 e1 ba 3d c5 b4 63 3d 00 40 4b bd 02 53 11 3c
       0.09125032 0.055592317 -0.049621582 0.008869888
000340 e9 86 a1 bd 43 a1 0b be 8b 8d d4 bb 41 9f 43 3d
       -0.0788706 -0.13635735 -0.0064866 0.0477593
000350 0d 64 d4 3d 9d 08 c1 3d a8 0f 00 be 65 52 da bd
       0.10370646 0.09425471 -0.12505972 -0.10660247
000360 2b db b8 3b d1 f5 0b 3e 0d a1 0b 3e fc 55 db bd
       0.0056413612 0.1366799 0.13635655 -0.107097596
000370 a4 4a 2e bc 05 6d 87 3d 44 9b 12 3d 0d 0e 72 bd
       -0.010637913 0.06612591 0.035792604 -0.05909543
000380 3a 59 94 bd 42 5c 33 3d 9a 03 c0 bd d4 46 12 3e
       -0.07243581 0.043789156 -0.09375687 0.14284831
000390 5b ef 76 bb 2c 53 d2 3d 2e 70 b5 bd e5 69 84 3c
       -0.0037679288 0.1026977 -0.08859287 0.016163776
0003a0 3f d6 82 bd 2f 8d ee bd 67 82 09 3e f4 5a 4c 3d
       -0.063885204 -0.116480224 0.13428651 0.049891427
0003b0 5d 95 fc 3d 9a 89 a6 bd 28 4e b0 bd a3 eb 68 bd
       0.12333176 -0.08131714 -0.08608657 -0.056865346
0003c0 44 0e 22 bd fd 7d 16 be 28 50 e4 bb 9f 75 bd bd
       -0.039564386 -0.14696498 -0.006967563 -0.0925095
0003d0 fc bc 94 3d fe 83 00 3e b6 e8 ad bd 15 c8 cd bd
       0.072626084 0.12550351 -0.08491652 -0.10047928
0003e0 82 bd 6c 3d 7b 1e b2 3d c7 db 2d bd 86 a8 18 3d
       0.057797916 0.0869722 -0.042445924 0.03727009
0003f0 f6 56 88 bc 9f 38 c1 3d 9c 90 b6 3d 8e 93 25 3d
       -0.016643029 0.09434628 0.08914301 0.040423922

arith.constant3 f4 [64]
000000 a2 d9 9b 3c 43 5f 4b bc c6 06 9c bb 3f 5b 68 3c
       0.019024674 -0.012412849 -0.0047615496 0.014181911
000010 e1 13 04 b9 ff 6e 1a 3c a1 3a 65 3c 6b 98 5d 3c
       -0.00012595906 0.009425878 0.013991029 0.013525109
000020 d3 a7 1b 3b 07 e9 62 3c 6b a8 be 3c 9e 40 24 bc
       0.0023751154 0.013849503 0.023273667 -0.010025172
000030 cc 93 18 bc a5 f3 bf bb a8 7d 7f 3c 4e b9 04 3c
       -0.009312581 -0.005857902 0.015593924 0.008100821
000040 ac f2 b5 3a cf cc a2 bc eb 24 15 bc b2 3b eb bb
       0.0013881526 -0.019873051 -0.00910304 -0.007178747
000050 64 b9 97 3c dd 2e bd ba d2 71 7f 3c 29 61 20 3c
       0.018521018 -0.0014433522 0.015591102 0.00978879
000060 94 65 76 3c b0 57 82 3c e5 a4 be 3c 60 c9 21 3b
       0.015038867 0.015910953 0.023271987 0.002468668
000070 42 a8 97 3c e9 26 96 3c 75 06 80 3b b8 99 95 bc
       0.018512849 0.0183291 0.0039070197 -0.018261775
000080 d2 3d fb 3b ac 49 a1 3b 81 25 13 3c 2b 8a 7b bc
       0.0076672817 0.0049221125 0.00898111 -0.015352766
000090 2c 73 0c 3b d7 ee 5e 3c 92 ea 2e 3c 69 fe 3f bc
       0.0021430952 0.013606749 0.010676043 -0.011718371
0000a0 a3 e9 a3 3c 13 27 1f 3c 21 d8 08 3a 77 82 d2 3c
       0.020008868 0.009713906 0.0005220194 0.025696976
0000b0 75 e3 18 bc 63 04 85 bc 3a ab 3e bc e0 8d 42 3c
       -0.009331574 -0.016237443 -0.011637503 0.011874646
0000c0 91 99 6f bc 6a c5 4c 3b 44 ef 98 3b 3a 9a cc 3b
       -0.014624015 0.0031245598 0.0046671946 0.006243971
0000d0 9d 74 72 3b fa c2 81 3c d0 47 90 bb e2 ce 72 3c
       0.0036995776 0.015840042 -0.004403092 0.0148198325
0000e0 1c 05 63 3a a0 86 cd 3c 0a e9 4a 3c 80 6a 48 3a
       0.0008660124 0.025088608 0.012384662 0.0007645264
0000f0 fb e7 a6 3b ab 46 1f 3c cd af 12 3c 4d ac 77 bc
       0.005093572 0.009721438 0.008953047 -0.015116763

arith.constant4 f4 [128]
000000 21 2b b2 3c ce 16 36 3b 60 39 1e b9 e7 ed 35 3c
       0.021749081 0.0027784589 -0.00015089428 0.011104084
000010 8e 00 e8 3b d8 fc 9b 38 d7 71 1b bc a1 d7 06 bc
       0.0070801442 7.438072e-05 -0.009487591 -0.008230121
000020 0b e8 85 3c d1 ff 0a bc 7f 7f 2d 3c bb ce 33 3c
       0.016345998 -0.008483843 0.0105894795 0.010974581
000030 50 bd a2 3c 81 4a 71 3b b5 d3 ea bb 7a d7 7b 3b
       0.019865662 0.003681809 -0.0071663507 0.0038427995
000040 a6 99 b1 3b 97 88 04 bc 87 dd 30 3c 71 f9 f2 3b
       0.0054199276 -0.008089206 0.010795004 0.0074149896
000050 95 41 11 bc 75 26 9c bb 20 e8 32 bc 2c 25 04 bc
       -0.008865734 -0.0047653266 -0.010919601 -0.008065503
000060 00 00 00 00 19 a9 c5 bb ff e8 0b bb b0 25 68 bb
       0.0 -0.006032121 -0.0021348593 -0.0035422854
000070 00 00 00 00 00 00 00 00 72 43 6c 3b 54 fe 36 3b
       0.0 0.0 0.0036050943 0.0027922587
000080 8e 74 25 bc 5b 4e fe 3b 89 19 7a bb 00 00 00 00
       -0.01009859 0.0077608055 -0.0038162193 0.0
000090 48 e1 b3 ba d9 cd 6b bc 98 f4 10 3c 16 85 6e 3c
       -0.0013723755 -0.01439234 0.008847378 0.014558097
0000a0 de 48 06 b8 ad 01 11 bc cc 6e 65 3c 0a e1 b3 3a
       -3.2015952e-05 -0.008850497 0.014003467 0.0013723683
0000b0 77 5a 35 bc 9f d1 34 bc 5a a0 09 3c 4e b7 e1 bb
       -0.011068932 -0.011036306 0.008400047 -0.0068883067
0000c0 24 48 e8 bb d9 eb 67 bb 56 e9 3e 3c a2 0b c6 3b
       -0.007088678 -0.003538838 0.011652311 0.006043867
0000d0 c6 bc d5 bb 00 00 00 00 14 7c 96 ba a8 0b aa 3b
       -0.0065227477 0.0 -0.001148107 0.005189378
0000e0 d3 a0 8f 3b a5 80 c3 3a b7 7c 2f bc c1 69 da 3b
       0.0043831854 0.0014915658 -0.010710887 0.006665439
0000f0 b9 3b 5e 39 00 00 00 00 59 16 05 bc 31 7b 02 3c
       0.00021193818 0.0 -0.008123004 0.007963941
000100 da 63 fc 3a 00 00 00 00 86 6d f5 ba a2 0f 1f bc
       0.0019255832 0.0 -0.0018724657 -0.009708317
000110 d4 5b 04 bb ef e9 9c bc 41 f6 f7 39 42 1e 83 bc
       -0.0020196335 -0.019154517 0.00047294985 -0.016005639
000120 bc dd fc 3b ef 5a 18 3c ac 03 2b 3c ee dd a1 bc
       0.0077168625 0.009299024 0.010437887 -0.019759145
000130 dd 0c 6c 3b ab 7b ce 3b e4 3d 3e 3b 38 ce 03 bc
       0.003601841 0.0063013635 0.002902859 -0.008044772
000140 43 eb df b9 3d 1c 0a 3c 13 0f 23 bb f1 f6 43 3b
       -0.00042709158 0.008429584 -0.002488081 0.0029901827
000150 1c 74 d3 bb 1b 67 5d bc 00 00 00 00 d7 02 a2 3b
       -0.0064530503 -0.013513352 0.0 0.004944186
000160 9c e1 d6 3b 0c 33 8f bb 00 00 00 00 00 00 00 00
       0.0065576565 -0.004370099 0.0 0.0
000170 32 a7 3e bc 9c 05 0d bc 00 00 00 00 fe cf c3 bb
       -0.011636542 -0.008607294 0.0 -0.0059757223
000180 0d 0b 17 bc 6d cf 13 3c 1d 37 bb bb 75 21 56 3c
       -0.009218943 0.009021622 -0.005713357 0.0130695
000190 bc 29 77 3c 94 56 57 ba 1c 2b b8 3c 7f b6 b5 bb
       0.015085634 -0.00082145 0.022481494 -0.005545437
0001a0 44 a0 21 3c b6 55 b3 3b 3b a9 0b bc 95 c6 d1 bb
       0.00986487 0.005472864 -0.008524234 -0.0064018467
0001b0 07 26 7e bb 0d 45 b3 3c 94 f5 81 39 bb cd 9f bb
       -0.003877999 0.021883512 0.00024787767 -0.00487682
0001c0 e8 b1 16 ba 6e 15 20 3c 7f 0c 27 bc 78 07 8a 3c
       -0.0005748556 0.009770734 -0.01019585 0.016849265
0001d0 31 66 8e bb b1 31 f2 bb 17 37 57 bb dd 1c 43 3c
       -0.0043456783 -0.0073911776 -0.0032839233 0.011908737
0001e0 ca 18 08 bb 0b bd 3e bc 7e 2f 27 3a a4 15 47 bc
       -0.0020766729 -0.011641751 0.00063776213 -0.012151156
0001f0 50 24 0f 3a 13 b3 44 bc 26 54 58 bb 36 53 64 ba
       0.0005460428 -0.012005585 -0.003300914 -0.0008709909

arith.constant5 f4 [3]
000000 c2 73 5c bb dc 5d 01 bb 8d 46 0e 3c
       -0.0033638333 -0.0019739782 0.008683813

arith.constant6 f4 [3, 64]
000000 df 2b 35 3e e9 29 0b be 28 d3 50 3e ea 93 a5 bd
       0.17692517 -0.13590206 0.2039305 -0.08084853
000010 79 9a 9e 3e 8c 0d 96 3c 94 ff 9e be 52 18 a0 bd
       0.30977228 0.018317007 -0.31054366 -0.07817139
000020 f4 e5 7a 3e 23 5b 59 3e 95 10 9a 3e 4d d3 61 3d
       0.24501783 0.21226172 0.30090776 0.055133153
000030 d3 f4 83 3c c5 a5 83 be 7c c6 12 be 48 52 86 3d
       0.016107952 -0.2571241 -0.14333528 0.06558663
000040 06 3c ed 3d f4 ea a9 3d 81 61 9d 3c 38 da 3c 3e
       0.11583714 0.08296767 0.019211533 0.18442619
000050 f0 0c 45 be cf 61 84 be 6c 4b 13 be 25 21 97 3e
       -0.19243217 -0.25855872 -0.1438424 0.29517475
000060 76 46 77 bd ba e0 6d 3e 94 be 50 be 8e 5b 58 be
       -0.06036993 0.23230258 -0.203852 -0.21128675
000070 ad b8 97 be 09 3b c5 3d a9 c8 8b be 10 12 59 be
       -0.29633084 0.09630401 -0.2730153 -0.21198297
000080 8f 5b b5 bd d6 bd 60 be c2 fd a0 be 90 fa 83 be
       -0.08855354 -0.21947417 -0.31443602 -0.25777102
000090 d4 ad 7e 3e 5f ca 3f 3d d7 d3 28 be 41 fb e7 3d
       0.24870998 0.046823855 -0.1648706 0.1132722
0000a0 46 ee 91 be 0f 70 aa bd 49 04 00 be 90 8c 25 3b
       -0.285021 -0.08322155 -0.12501635 0.0025260784
0000b0 6e 2e 8b be 3e 31 8a 3e 65 d0 1b 3b 5a d3 68 3d
       -0.2718386 0.26990694 0.0023775336 0.056842186
0000c0 90 40 64 3d 69 20 52 bd 8c 5e 47 3e c9 b3 a2 bd
       0.055725634 -0.05130044 0.1946966 -0.079444475
0000d0 44 3f d3 bd dc c7 1d be 3c 72 48 3e 1c df 98 be
       -0.10314801 -0.15408272 0.19574827 -0.2985772
0000e0 4c 52 80 3e 4e 53 07 be 54 58 6b 3e 24 a9 6b bc
       0.25062788 -0.13215372 0.22982913 -0.014383588
0000f0 e2 f4 1f be 9e bb c0 3d a4 1d c0 3c 5f ea 03 3e
       -0.15620759 0.09410785 0.023451634 0.12882374
000100 93 33 8b be cd 86 61 3d 51 2f 32 3e 17 fb 4e be
       -0.27187786 0.055060197 0.17400862 -0.2021297
000110 cc 15 1c be a2 ef 88 3d 7b 4c d3 3d 65 ba 49 3d
       -0.1524269 0.06686331 0.10317322 0.049250025
000120 07 98 3b 3d 03 a0 a3 be 68 39 05 3e 80 02 34 be
       0.04579928 -0.31958017 0.1301018 -0.17579079
000130 e5 9a 4b be 8c a2 43 be b0 5a 83 3d 68 c1 24 be
       -0.19883306 -0.19104975 0.06413782 -0.16089404
000140 be 73 23 3e fa 3f e9 bd 91 73 78 bd 9d 2b 3e bd
       0.15962121 -0.11389156 -0.060657088 -0.04642831
000150 0b 52 63 3e 4f 71 e3 bd 9e ea 22 bd eb eb 93 3e
       0.22199266 -0.11105596 -0.03977453 0.2889093
000160 8b 8a 9f be 23 11 26 3c 52 b6 14 be 1e 59 1c 3e
       -0.31160387 0.010135922 -0.14522675 0.1526837
000170 80 8a 84 3d e0 86 a5 be d2 2b 89 3d 82 6d 05 be
       0.06471729 -0.32329464 0.06697811 -0.13030055
000180 94 e7 6d 3e 33 18 04 3d 5b 1c 94 3e 38 3d 43 3e
       0.23232871 0.03224964 0.28927884 0.19066322
000190 55 5e 9f 3e 1e af 9a be 26 ca a0 bc a0 4a 4e 3e
       0.31126657 -0.3021173 -0.019627642 0.20145655
0001a0 83 1d dc 3d 8c 27 82 be 67 ee e2 bd 38 2c 8f be
       0.107478164 -0.25420797 -0.11080628 -0.27963424
0001b0 b2 68 54 3c 9c 83 1f 3e 79 94 1e 3e ae 92 28 bc
       0.012964414 0.15577549 0.15486325 -0.010288877
0001c0 70 98 48 be 97 fb 82 3d b9 c2 34 bd 85 5e 92 be
       -0.195894 0.06395643 -0.044131014 -0.28587738
0001d0 26 9b 86 be 26 40 38 be 84 a7 24 be 16 e6 48 3e
       -0.26290244 -0.1799322 -0.16079527 0.19619021
0001e0 25 b1 69 be 21 24 a0 be 50 9c 2a be ba be 8b be
       -0.22821482 -0.31277564 -0.16661191 -0.2729395
0001f0 68 1b 22 3e 7b ad 16 be 86 85 2a 3e 5c d0 b0 bd
       0.15830767 -0.14714615 0.16652498 -0.086334914
000200 e0 d7 83 3d 3a eb 5e bc aa 81 0c 3e 19 d4 5c 3d
       0.06437659 -0.013605887 0.13721338 0.05391321
000210 f9 00 09 be b1 fc d4 bd 73 05 b1 3c 0e eb a5 be
       -0.13379277 -0.103997596 0.021609044 -0.32405895
000220 af fd 40 3e 05 21 52 3e 9a 77 23 3e 6a 58 0a be
       0.18846773 0.20520408 0.15963593 -0.1351029
000230 ce 4e 15 3e 23 41 91 3d bb 8e 80 3e 19 9c 23 be
       0.14580843 0.07092502 0.25108895 -0.15977515
000240 8d a5 40 3e d7 32 4e 3d 0b 40 16 be 0a 2f fd bd
       0.18813153 0.050341453 -0.14672868 -0.123624876
000250 45 8f 14 3e f3 f9 86 be f5 c2 64 bc 35 0c aa be
       0.14507778 -0.2636257 -0.013962497 -0.33212438
000260 39 99 27 3e 52 1e 7e 3e 4e a5 8e 3e 38 db 84 be
       0.16367044 0.24816254 0.27860492 -0.259485
000270 f5 50 e7 3d 15 fd 60 3d ec 67 9e be 6e b9 44 3e
       0.11294738 0.054928858 -0.3093866 0.19211361
000280 bf fc 8c 3e 86 c6 d7 bc b5 e5 9f bd 81 d5 44 3d
       0.2753658 -0.02633978 -0.07807485 0.048055176
000290 93 a0 0f be 4f ea b6 3d b2 79 f7 3d 77 f0 1a 3e
       -0.14026098 0.089314096 0.120837584 0.15130793
0002a0 c4 a3 ab 3d 33 bd 39 3e d1 27 93 be df 07 8c 3e
       0.08380845 0.1813858 -0.28741315 0.27349755
0002b0 68 5d 36 be e6 ea b5 bc bf 8b 68 3e 43 21 ed bd
       -0.17809069 -0.022206735 0.22709559 -0.1157861
0002c0 ec 1a a2 3d 84 b9 41 be 80 a5 8c 3e 54 d9 b9 bd
       0.07915291 -0.18918425 0.27470016 -0.09074655
0002d0 d0 63 3e be 81 b7 85 3e 1a 56 d3 3d 1e 2f 44 3d
       -0.18592763 0.26116565 0.10319157 0.047896497
0002e0 62 30 60 be 68 63 4d 3d 18 94 60 3e d6 cc 93 be
       -0.21893457 0.05014363 0.21931493 -0.28867215
0002f0 3f 45 e7 bd e9 b4 2e be b4 dd 14 be 2d 02 f0 ba
       -0.112925045 -0.17061199 -0.14537698 -0.0018311195

arith.constant7 f4 [32]
000000 26 53 b5 bb bf 78 2a 3c c5 fb c5 bb 47 a3 41 bc
       -0.0055335937 0.010404765 -0.006041976 -0.0118187135
000010 07 43 38 3c fa 30 99 3b a5 29 d2 3b 7e b6 90 ba
       0.011246449 0.004675028 0.006413656 -0.0011040715
000020 69 6f 21 bc f4 a1 89 3a 89 77 77 bc fa ea 81 3a
       -0.009853222 0.0010500536 -0.015104183 0.0009911947
000030 ab e0 a0 bb e0 3a 0a bb 29 8d 5f 3b df b0 2e 3c
       -0.004909595 -0.002109222 0.0034111238 0.010662287
000040 ab d6 0d bc a2 05 05 ba 6b e6 fe 3a b9 d4 2d 3b
       -0.008657138 -0.0005074387 0.0019447332 0.0026524498
000050 c5 5a 80 3b ad 4a 11 bb 35 bc f6 bb 5a bd b1 3b
       0.0039170706 -0.0022169754 -0.0075297602 0.005424184
000060 a3 cd 30 bb 63 ae 82 3b 51 df 71 39 52 2b 4a ba
       -0.0026978038 0.0039880737 0.00023066743 -0.00077121437
000070 c5 a9 4f ba db 13 3e bc ac 12 01 bb 57 b1 69 3b
       -0.0007921721 -0.011601414 -0.0019694967 0.0035658681

arith.constant8 f4 [32]
000000 10 39 33 bc 0f 27 b3 3c cc b0 63 3c 3a 32 a8 3b
       -0.010938898 0.02186921 0.013897132 0.0051329406
000010 d2 9d ed bb 01 98 e2 bb f0 70 eb 38 04 cd 36 3c
       -0.0072514797 -0.006915093 0.000112267095 0.011157278
000020 e0 4d 27 bb 67 b9 6b bb d4 ba a5 bc 61 d1 89 bc
       -0.0025528595 -0.0035968663 -0.020230688 -0.016823472
000030 d6 6a c9 3b 79 3f 06 3c d6 6a 42 bc dc 1f 3c bc
       0.006146769 0.008193844 -0.011866292 -0.011482205
000040 0f 09 3a 3c b6 5f 2e bc bd 1d a2 3b 9c 1d 0f 39
       0.011354699 -0.010642936 0.0049473927 0.00013648573
000050 b7 61 1c bb 4d 19 e2 3b e7 b8 e2 3b 06 27 d2 3b
       -0.0023861954 0.0068999887 0.0069190147 0.0064133434
000060 d8 7b a8 3b 59 93 f0 bb 57 12 5b bc b6 40 ed bb
       0.0051417165 -0.007341784 -0.013371072 -0.00724038
000070 29 c7 ea 3b 5c 71 5f bb e1 4b 0e 3c f5 07 22 bb
       0.007164855 -0.0034094667 0.008685083 -0.002472398

arith.constant9 f4 [32]
000000 21 08 c4 3b f9 91 c6 3c 43 52 45 3c dd 75 75 3c
       0.0059824144 0.024239527 0.0120435385 0.014981714
000010 61 ae d5 3c fb 5f 9d 3b 1f 9b 33 3c f8 e9 c5 bc
       0.026084127 0.0048027015 0.010962277 -0.024159417
000020 57 84 6a 3c 5c 42 0f 3b 66 e6 bb 3b dc 84 68 3c
       0.014313779 0.0021859622 0.0057342527 0.014191832
000030 1a b2 cc ba 95 4f 08 bc 93 66 87 3c e1 5e bd bb
       -0.0015617043 -0.008319755 0.016528403 -0.0057791327
000040 53 2c 2f bc ef 5a b5 bb 90 54 af bb 99 36 32 3c
       -0.01069172 -0.005534522 -0.005350657 0.010877275
000050 93 7f 74 bb 6a cf d7 bb 25 13 88 bc b1 8b a3 3c
       -0.0037307485 -0.006586005 -0.016610691 0.019964071
000060 83 97 62 bc 05 6c 87 bc 67 f9 59 3c e6 9e 4f ba
       -0.0138300685 -0.016531 0.013304091 -0.0007920101
000070 63 37 3f bb 00 b8 0a 3c e3 71 40 3c 7d b9 ac bc
       -0.00291773 0.008466721 0.011745903 -0.021084541

tfl.pseudo_qconst i1 [32, 3, 3, 32]
000000 f3 0f dc 34 ec 10 fe 50 d1 f4 5e 27 2e 00 cc ac
       -13 15 -36 52 -20 16 -2 80 -47 -12 94 39 46 0 -52 -84
000010 5d 5c 24 0c 34 12 27 0e 34 f4 4c b7 81 3c be bb
       93 92 36 12 52 18 39 14 52 -12 76 -73 -127 60 -66 -69
000020 4c e0 f1 23 dd 42 a8 ee fc 09 e9 09 f3 2f 0a cb
       76 -32 -15 35 -35 66 -88 -18 -4 9 -23 9 -13 47 10 -53
000030 f6 0f d0 55 3d 27 de 21 f2 35 bc 05 c4 2e 13 c4
       -10 15 -48 85 61 39 -34 33 -14 53 -68 5 -60 46 19 -60
000040 4a d4 07 c6 e2 e7 04 e1 0b 07 2d e9 f9 30 2a 21
       74 -44 7 -58 -30 -25 4 -31 11 7 45 -23 -7 48 42 33
000050 ca 4a d9 38 22 cf 0e dd d1 16 1a 22 23 3c a4 25
       -54 74 -39 56 34 -49 14 -35 -47 22 26 34 35 60 -92 37
000060 c3 cc 30 3c dc bb 3a d7 17 b9 00 12 cf 4c 20 e9
       -61 -52 48 60 -36 -69 58 -41 23 -71 0 18 -49 76 32 -23
000070 df ef da 56 2a cb e2 1f 27 f3 1c dc 28 4e 27 d2
       -33 -17 -38 86 42 -53 -30 31 39 -13 28 -36 40 78 39 -46
000080 bf 31 b7 24 eb 3c 44 41 2f e0 4b 32 d7 c3 31 e2
       -65 49 -73 36 -21 60 68 65 47 -32 75 50 -41 -61 49 -30
000090 b0 59 56 de 07 04 b2 fa 61 bb 15 35 aa 0b b0 06
       -80 89 86 -34 7 4 -78 -6 97 -69 21 53 -86 11 -80 6
0000a0 f2 dd 40 e1 c9 bf 21 da f5 1d 15 3f 1f e6 fc 06
       -14 -35 64 -31 -55 -65 33 -38 -11 29 21 63 31 -26 -4 6
0000b0 f1 29 39 f8 4b a9 10 c9 32 1a ae 3c d3 bd 9d 28
       -15 41 57 -8 75 -87 16 -55 50 26 -82 60 -45 -67 -99 40
0000c0 0c 50 e1 30 c9 fa 38 10 1d d4 21 2c 17 db b2 e0
       12 80 -31 48 -55 -6 56 16 29 -44 33 44 23 -37 -78 -32
0000d0 ba ea 06 fd 30 be f8 da de e7 da db ea 26 49 37
       -70 -22 6 -3 48 -66 -8 -38 -34 -25 -38 -37 -22 38 73 55
0000e0 33 03 f9 d0 2c 44 0d e1 35 39 d7 ca 3e 0f 23 23
       51 3 -7 -48 44 68 13 -31 53 57 -41 -54 62 15 35 35
0000f0 24 d7 43 cc e0 39 25 d0 ab 0b b5 0e 1b 05 ed 3c
       36 -41 67 -52 -32 57 37 -48 -85 11 -75 14 27 5 -19 60

tfl.pseudo_qconst1 i1 [32, 3, 3, 32]
000000 7f 25 f0 ef 2a 37 eb de 03 16 3a 48 3e 4b ba 3a
       127 37 -16 -17 42 55 -21 -34 3 22 58 72 62 75 -70 58
000010 fb 2c 41 d1 c8 03 e8 f1 2b d1 24 0b 09 bc b5 3e
       -5 44 65 -47 -56 3 -24 -15 43 -47 36 11 9 -68 -75 62
000020 09 d5 b1 ff 26 dd 0e 08 93 33 27 c2 4a 22 f1 20
       9 -43 -79 -1 38 -35 14 8 -109 51 39 -62 74 34 -15 32
000030 4a 33 b9 bf 0e 40 32 8d 59 1c 3e 0f 52 eb 0a 29
       74 51 -71 -65 14 64 50 -115 89 28 62 15 82 -21 10 41
000040 11 26 31 e8 e4 2c b0 41 bd e1 e6 1b 0b 3b 02 c0
       17 38 49 -24 -28 44 -80 65 -67 -31 -26 27 11 59 2 -64
000050 ec 03 31 4a 41 51 30 0d 0f fc 39 db bc 55 2a c2
       -20 3 49 74 65 81 48 13 15 -4 57 -37 -68 85 42 -62
000060 36 13 c0 10 dd f3 fb 12 22 18 d9 41 f0 e7 c8 ad
       54 19 -64 16 -35 -13 -5 18 34 24 -39 65 -16 -25 -56 -83
000070 ec f7 bb 45 6f 48 db 1a 5c 36 be b9 2b d8 ac 2a
       -20 -9 -69 69 111 72 -37 26 92 54 -66 -71 43 -40 -84 42
000080 6d 26 45 61 fc e4 28 e5 1c 52 27 9d cf 3e d5 e8
       109 38 69 97 -4 -28 40 -27 28 82 39 -99 -49 62 -43 -24
000090 5c e1 5e 21 18 cd c6 27 0d da 56 47 18 c4 25 06
       92 -31 94 33 24 -51 -58 39 13 -38 86 71 24 -60 37 6
0000a0 ac 4e 47 45 17 36 3f 07 f9 cb 07 d2 ee d7 ff 28
       -84 78 71 69 23 54 63 7 -7 -53 7 -46 -18 -41 -1 40
0000b0 4d e3 f6 ee 0b 4e 52 f1 56 e9 47 cf 1c 35 b9 e0
       77 -29 -10 -18 11 78 82 -15 86 -23 71 -49 28 53 -71 -32
0000c0 38 be a0 38 0e ba 39 a2 4d c9 e1 3b c8 13 3a 46
       56 -66 -96 56 14 -70 57 -94 77 -55 -31 59 -56 19 58 70
0000d0 18 e8 c9 08 30 d5 bc 1d 47 37 cb 41 0d dd eb 1b
       24 -24 -55 8 48 -43 -68 29 71 55 -53 65 13 -35 -21 27
0000e0 50 df 0b fc 4c 1a 2f 35 e2 ba d0 6a 01 4a 3a dc
       80 -33 11 -4 76 26 47 53 -30 -70 -48 106 1 74 58 -36
0000f0 68 d0 c3 bd 0e aa 3f 13 17 bf a8 e5 23 60 40 24
       104 -48 -61 -67 14 -86 63 19 23 -65 -88 -27 35 96 64 36

tfl.pseudo_qconst2 i1 [32, 3, 3, 32]
000000 34 50 a8 60 55 48 b1 55 a7 20 a3 55 27 2e f3 30
       52 80 -88 96 85 72 -79 85 -89 32 -93 85 39 46 -13 48
000010 a0 c0 f8 59 ce f6 b3 47 b9 fc 1f ca 22 09 b8 1d
       -96 -64 -8 89 -50 -10 -77 71 -71 -4 31 -54 34 9 -72 29
000020 27 b6 cf 4b d0 11 26 ff c0 de 3c 2d ff b5 c0 d6
       39 -74 -49 75 -48 17 38 -1 -64 -34 60 45 -1 -75 -64 -42
000030 c8 46 34 9e 2c d8 01 f7 15 02 fc f9 35 0a 26 c4
       -56 70 52 -98 44 -40 1 -9 21 2 -4 -7 53 10 38 -60
000040 4f 43 57 cf 09 1f 0f 7f a4 b2 17 e1 e1 c2 1c 37
       79 67 87 -49 9 31 15 127 -92 -78 23 -31 -31 -62 28 55
000050 3c 21 c3 d9 b6 89 f5 55 b7 f9 3e f6 ff 45 0d 13
       60 33 -61 -39 -74 -119 -11 85 -73 -7 62 -10 -1 69 13 19
000060 e7 c1 5f dd 5d 88 ce 68 31 57 93 1b d3 cc 2c d7
       -25 -63 95 -35 93 -120 -50 104 49 87 -109 27 -45 -52 44 -41
000070 23 2e 13 45 e7 39 11 e3 33 27 b4 c7 c5 14 3b 11
       35 46 19 69 -25 57 17 -29 51 39 -76 -57 -59 20 59 17
000080 75 8c a8 0b d5 28 e7 34 d0 3c ef d0 4c c0 f5 f2
       117 -116 -88 11 -43 40 -25 52 -48 60 -17 -48 76 -64 -11 -14
000090 53 06 d1 b2 bd 23 1a dc 32 24 d7 f8 0e f8 a3 40
       83 6 -47 -78 -67 35 26 -36 50 36 -41 -8 14 -8 -93 64
0000a0 b1 7c 0f 4a 3d 25 ba 57 d1 b1 ee 2d 8a 31 13 a6
       -79 124 15 74 61 37 -70 87 -47 -79 -18 45 -118 49 19 -90
0000b0 ab fa c9 12 b7 0c 43 5a 56 1f d2 8d c0 a5 19 f1
       -85 -6 -55 18 -73 12 67 90 86 31 -46 -115 -64 -91 25 -15
0000c0 58 82 cb cf 54 3f c3 26 28 8e db 1e 6a fc c3 e7
       88 -126 -53 -49 84 63 -61 38 40 -114 -37 30 106 -4 -61 -25
0000d0 dd 25 63 9e 17 0f 8d 9f 1c ff 03 43 cb dd 1b 2f
       -35 37 99 -98 23 15 -115 -97 28 -1 3 67 -53 -35 27 47
0000e0 e0 2a 42 00 b0 00 da df 4c 56 40 a8 31 f9 98 00
       -32 42 66 0 -80 0 -38 -33 76 86 64 -88 49 -7 -104 0
0000f0 f9 71 1a c8 20 e8 a7 55 bd fc df 86 f1 4b 3c 24
       -7 113 26 -56 32 -24 -89 85 -67 -4 -33 -122 -15 75 60 36

tfl.pseudo_qconst3 i1 [64, 128]
000000 57 2a 50 cb 61 ba 4c ee f1 6b 57 e5 16 03 9c 95
       87 42 80 -53 97 -70 76 -18 -15 107 87 -27 22 3 -100 -107
000010 9f f1 e0 3c 00 62 0e e2 42 72 5b 10 dc 20 1f d7
       -97 -15 -32 60 0 98 14 -30 66 114 91 16 -36 32 31 -41
000020 cb 5e e7 4a e6 a8 35 3d 08 da 3c fb 58 59 41 1a
       -53 94 -25 74 -26 -88 53 61 8 -38 60 -5 88 89 65 26
000030 9c ca 30 57 66 5d 16 42 9d d9 c8 57 05 25 4d 37
       -100 -54 48 87 102 93 22 66 -99 -39 -56 87 5 37 77 55
000040 d0 c1 b4 ca db a3 fe 42 ab cc d6 ee d5 de ec 02
       -48 -63 -76 -54 -37 -93 -2 66 -85 -52 -42 -18 -43 -34 -20 2
000050 03 34 df 65 32 96 1c 2f 36 d0 b5 ff 7f 51 92 0f
       3 52 -33 101 50 -106 28 47 54 -48 -75 -1 127 81 -110 15
000060 a0 82 6a cd 8d b1 0e a5 7c b9 99 e2 c8 e8 fa 02
       -96 -126 106 -51 -115 -79 14 -91 124 -71 -103 -30 -56 -24 -6 2
000070 47 33 1c 32 0f fe 28 a6 3e 70 8d b7 b6 ed 10 dd
       71 51 28 50 15 -2 40 -90 62 112 -115 -73 -74 -19 16 -35
000080 e7 9a 41 5a 2a 44 0d d9 04 b5 30 e6 a2 09 b7 ca
       -25 -102 65 90 42 68 13 -39 4 -75 48 -26 -94 9 -73 -54
000090 17 eb 49 c4 ca 3d 67 f2 4b 43 b5 4a ef 40 c6 e7
       23 -21 73 -60 -54 61 103 -14 75 67 -75 74 -17 64 -58 -25
0000a0 a4 c8 ea 47 a3 d6 93 1a 08 d0 b9 f3 35 58 8e 14
       -92 -56 -22 71 -93 -42 -109 26 8 -48 -71 -13 53 88 -114 20
0000b0 2a 14 20 18 45 d0 27 0d 46 ef 3c 38 e3 27 45 c0
       42 20 32 24 69 -48 39 13 70 -17 60 56 -29 39 69 -64
0000c0 07 46 02 b7 be 97 9b 5c 41 d4 81 1b 99 44 f9 22
       7 70 2 -73 -66 -105 -101 92 65 -44 -127 27 -103 68 -7 34
0000d0 fd c0 b7 53 e1 46 bc a5 07 c4 f4 0c d3 f7 f1 2f
       -3 -64 -73 83 -31 70 -68 -91 7 -60 -12 12 -45 -9 -15 47
0000e0 da ad b8 1a bb 1f b6 aa c9 c2 14 b8 c4 1d aa 19
       -38 -83 -72 26 -69 31 -74 -86 -55 -62 20 -72 -60 29 -86 25
0000f0 99 b3 15 31 da d9 52 cd ba 19 9e 61 f3 32 0b d4
       -103 -77 21 49 -38 -39 82 -51 -70 25 -98 97 -13 50 11 -44

tfl.pseudo_qconst4 i1 [128, 128]
000000 3d 64 52 6e e4 d0 0b f5 fd 30 69 ea 36 39 00 ca
       61 100 82 110 -28 -48 11 -11 -3 48 105 -22 54 57 0 -54
000010 aa a5 d4 63 a7 ce 0f 40 b6 64 63 b4 62 e0 f0 f5
       -86 -91 -44 99 -89 -50 15 64 -74 100 99 -76 98 -32 -16 -11
000020 26 1f a5 4a dd 5f 44 bc cf bd ad 2b fe 0f f3 ed
       38 31 -91 74 -35 95 68 -68 -49 -67 -83 43 -2 15 -13 -19
000030 cb 3c 2e 61 51 b1 5d 73 02 0f 53 ca c2 50 a7 36
       -53 60 46 97 81 -79 93 115 2 15 83 -54 -62 80 -89 54
000040 60 6c cd 1c fa 41 bd 5c 66 5c cd ca 23 bd ca b9
       96 108 -51 28 -6 65 -67 92 102 92 -51 -54 35 -67 -54 -71
000050 f7 23 24 d4 48 7f ac d3 50 3a dd 55 2f d5 77 ce
       -9 35 36 -44 72 127 -84 -45 80 58 -35 85 47 -43 119 -50
000060 11 f9 13 f9 ae 39 c4 67 08 e9 f4 c9 f7 e6 10 ce
       17 -7 19 -7 -82 57 -60 103 8 -23 -12 -55 -9 -26 16 -50
000070 45 ac 76 65 55 d3 a3 5a 41 55 bc 31 d5 ab ee 53
       69 -84 118 101 85 -45 -93 90 65 85 -68 49 -43 -85 -18 83
000080 8b a4 6d 85 be 93 62 f5 aa 10 a1 b6 f5 09 86 74
       -117 -92 109 -123 -66 -109 98 -11 -86 16 -95 -74 -11 9 -122 116
000090 9f 69 14 c4 bd dd c5 e2 99 2d 53 77 93 4d 44 b2
       -97 105 20 -60 -67 -35 -59 -30 -103 45 83 119 -109 77 68 -78
0000a0 ae f7 a7 20 54 77 b9 74 19 8d 1f a7 97 13 d1 f5
       -82 -9 -89 32 84 119 -71 116 25 -115 31 -89 -105 19 -47 -11
0000b0 04 fb 2e d0 bf e7 10 8b 18 f9 fd b6 bb 42 72 11
       4 -5 46 -48 -65 -25 16 -117 24 -7 -3 -74 -69 66 114 17
0000c0 a0 cd 44 bb 08 4e 42 f9 48 a9 c3 e6 2b c8 8e e1
       -96 -51 68 -69 8 78 66 -7 72 -87 -61 -26 43 -56 -114 -31
0000d0 d5 bc 12 72 d1 a3 25 dd e3 c6 9b 9e 1b fd 63 c0
       -43 -68 18 114 -47 -93 37 -35 -29 -58 -101 -98 27 -3 99 -64
0000e0 05 be c8 6b 5e 3a b6 69 7f ea f4 d2 78 39 ce f1
       5 -66 -56 107 94 58 -74 105 127 -22 -12 -46 120 57 -50 -15
0000f0 d7 d3 5f 4b d4 f4 4c 97 b8 6d 5b 71 35 f4 91 00
       -41 -45 95 75 -44 -12 76 -105 -72 109 91 113 53 -12 -111 0
